models/ev_sales_hybrid_model_simple.pth (torch, 3584 bytes, 5 tensors)

quantum_weights f4 [1, 2, 3]
00000000: 4880 b3a6 9195 0e00 dc3e e4a6 735b 093a
00000010: 84b9 0d3a 892c 0180
-1.2455391e-15 1.339351e-39 -1.5837716e-15 0.0005239762 0.0005406367 -1.07812e-40

classical_nn.fc1.weight f4 [2, 49]
00000000: 7b07 0f80 c856 993e f19a 523d cab4 eec0
00000010: b1bb 1e41 9852 d13c 36bb 70ba 2465 bf3b
00000020: 5003 15bd 21dd 0e3c 281a 16bc 6b71 0f3f
00000030: 8fc9 2f3f 10ac 143f 8c3d 1a3f 0416 123f
00000040: cacd 123f 0c97 2e3f f3ec 273f 8c76 423f
00000050: 2150 103f 8225 103f 2fcb 1c3f ea7b 563f
00000060: 40c4 1e3f f961 c1bc 631e 0cbe f3ed 243f
00000070: 8371 883f 01cf 023f d641 2f3f 1801 113f
00000080: bab4 063f 06ce 1d3f 7e30 2b3f 8e9e 0c3f
00000090: d364 313f 0bfa 193f 9863 623f c7ed 133f
000000a0: 06c9 0a3f 1035 3f3f 5ddb 183f dab3 103f
000000b0: 698a fc40 045f d73f 4169 ac3f 8194 4f3f
000000c0: e5a0 823f 0096 0580 f8eb ae3e 320b 0080
000000d0: b6d5 0a41 c42e 2fc1 e5d1 f9bc a6e5 58bc
000000e0: ceb6 5ebb d393 943d ea9f 89bc 70a1 85bb
000000f0: 0de2 5f3c 7e7f 7c3e e6dc 9b3d 88c0 2c3e
00000100: 0c1e 243e 2be0 063e d8cf 933e bf70 c03d
00000110: 2ee0 923e 9a0b 3d3e 9408 f83d e28e 023e
00000120: 78da 5b3e f8be 613e f5a2 98bd 0552 07be
00000130: d6f5 f83d 15c6 933e 14b5 313e ff79 533e
00000140: ca31 983d df9c e53d 18d0 9a3d be67 433e
00000150: c759 093e 2f15 423e aa03 283e 8483 923e
00000160: 8282 1b3d b4fc 593e 6236 a73e c0aa d63d
00000170: 4b26 253e b5c4 69bf 30c1 3540 2471 2a40
00000180: f797 1140 4520 1e40
-1.380216e-39 0.2994902 0.051417295 -7.459569 9.920823 0.02555208 -0.000918317 0.0058409143
-0.036380112 0.008719713 -0.00916151 0.5603244 0.6866693 0.58075047 0.60250163 0.57064843
0.5734526 0.6819923 0.6559593 0.7596214 0.56372267 0.5630723 0.61247534 0.8378283
0.62018204 -0.023606287 -0.13683467 0.6442558 1.0659641 0.5109711 0.6845983 0.56642294
0.52619517 0.6164249 0.6687087 0.54929435 0.6929447 0.6014716 0.8843322 0.57784694
0.5421299 0.7469034 0.5970972 0.5652443 7.891896 1.6825871 1.3469621 0.81085974
1.0205351 -5.12987e-40 0.34164405 -4.016e-42 8.6771755 -10.948917 -0.030495593 -0.013238346
-0.0033983472 0.07254758 -0.016799886 -0.0040780827 0.013664735 0.2465801 0.076104924 0.1687032
0.16027087 0.13171451 0.2886951 0.093965046 0.2868666 0.18461457 0.12111011 0.12749818
0.21470058 0.22045505 -0.074529566 -0.13214882 0.121562645 0.28862062 0.17354232 0.20652007
0.074313715 0.112115614 0.07559222 0.19082543 0.13413154 0.18953393 0.16407648 0.28615963
0.03796626 0.21287805 0.32658678 0.10481787 0.16127889 -0.91315776 2.8399162 2.6631556
2.2749002 2.4707196

classical_nn.fc1.bias f4 [2]
00000000: 81f4 dc40 9b2a 8a40
6.9048467 4.317701

classical_nn.fc2.weight f4 [2, 2]
00000000: 66e8 0400 96b2 1100 e741 f7be f0a3 dbbe
4.50711e-40 1.625268e-39 -0.48292467 -0.42898512

classical_nn.fc2.bias f4 [2]
00000000: 85d7 0000 bb61 4740
7.7314e-41 3.11534
