models/ev_sales_hybrid_model_simple.pth (torch, 18948 bytes, 8 tensors)

fc1.weight f4 [64, 49]
00000000: 58fe 15be 26e4 063d 17a1 a23d 7a5c 68bd
00000010: 3966 4fbd 49ad 76bd 4e53 2dbe ed4a 8cbd
00000020: fa21 64be 83e2 353c de8a 2d3e e209 1c3e
00000030: 37ec 0d3e 12c5 aa3d eab8 063e 1378 44be
00000040: b01a d63d c4b5 c23d 3980 e4bd 3762 39be
00000050: 946a 57bb e07d e539 2156 073e cb8f a23d
00000060: 08fb c63d 340c 313d 2e6b 3fbe ace3 4abe
00000070: 0442 013e 1019 9b3c 7752 bebd f37c 3d3d
00000080: 8912 d43d 87c5 053e d3b5 b43d 206f 15be
00000090: c0a6 65be 6c5f cf3d 377b c03d 59fb 4abe
000000a0: e65f e13d 346b 60be df33 19be 4a5d b63d
000000b0: 489c f33d ef32 28be d063 d9bd 8be1 043e
000000c0: 4e57 d93d 66fe 313e 3fe7 8ebc 62a3 ddbc
000000d0: d001 4aba 0610 483d ed06 13bd 089f 033e
000000e0: e8cf 633d 0a99 363e 371a 07be a06c 2dbd
000000f0: e1a7 1abe 03b6 7cbd d27f 8fbd 0081 6739
00000100: b1fc 0cbe 44df 2f3d 21cc b33c 6255 08bd
00000110: dfbd 053c 64e8 28bb 525b e13c 3457 ae3d
00000120: de58 9abc a62d 2f3a 2a3e 1a3e 1ffe 2a3d
00000130: 1dc8 a7bb 98fe 233d f219 eabc e6c3 6abd
00000140: a812 e83c 5aab bebc 4605 edbd 9c63 8cbd
00000150: c69a 90bd d292 fd3c 1c1b 843d d85c d73d
00000160: fae3 b1bc 61a1 07be 704b 1e3c eca5 06bc
00000170: 5889 16be 6265 bc3b 662b 0e3c 4c15 833c
00000180: 27a5 c33d 6a07 a2bd 2a16 14be 9810 523c
00000190: 6572 923d c56d ed3d 5df3 c33b 9ceb e2bd
000001a0: 3aa3 aebd 19ba b8bd 74ff 62bd e826 3b3c
000001b0: 5615 29be e4b2 c63d 548e 143e 7655 34be
000001c0: f8ff c43c 2416 1e3d fbd5 e6bd a04e 933d
000001d0: 3ca7 0cbe 2930 753d 693e ee3d 7d93 173d
000001e0: 318a ed3d 6b1b df3d 1b58 a63d 3c58 4b3c
000001f0: ca17 163e a359 d13d 3e85 39be 9b97 21be
00000200: c556 11be 328d cf3d da1e 013e 2e72 973d
00000210: b270 8a3d 425e b2bd 42be 8bbd e7c1 d93d
00000220: 1d64 d93d af23 d5bc 8440 0c3e 9122 28be
00000230: a925 653d c86e d43d 0667 2bbe e706 f83c
00000240: 2edd 19be f71a bcbd 6ffc a73d 7433 fdbc
00000250: b49b acbd 5312 bcbd 1c7a ccbd 9858 733d
00000260: 82f7 39be 983a 01be 2776 03bc 00f8 74be
00000270: 2389 953c f945 35bd 6a07 473d cbea 32bd
00000280: c839 573d 81e3 cd3b 12ea 70bd 8947 f4bd
00000290: bb2c 313d 6ee4 203d 48e7 bc3d 0960 ab3b
000002a0: 6984 97bd 4b99 6e3d 720b 653d 220c 9b3d
000002b0: df50 54bd af3e c33d c567 e3bd 9e39 b03d
000002c0: 8d94 fcbd 2d26 723d 6ebc bb3d 8800 debd
000002d0: 4f4f ffbd aa27 ab3d 0af8 3c3d 09be b83d
000002e0: 0abc 2d3d 7116 553d 031f c43d 0047 18be
000002f0: 6eb1 c73d 126a b4bd b4a2 a73d 20da f03c
00000300: 1c9b 05be c6ba 11be b9aa c03d 6063 3a3d
00000310: 43f9 0bbd 77ee 87bb bf59 2a3e 020d 37bd
00000320: ec06 87bd 1544 4e3e 243d e73d e522 803d
00000330: 9bd4 ff3d ea93 05bd ccc0 1fbe 4c0d 6abd
00000340: cacf 413d c794 953d 61da e93b e445 523c
00000350: 26a2 10bb 9072 80ba 7c94 7abb 44f7 7bbc
00000360: 96af f23c 1c5e 173c 7d09 88bd 0ae4 623c
00000370: 602f a1bb 392c 9e3d 7e88 023c 36cd e23c
00000380: d272 1dbe d9b4 0dbe d025 fabd 89c0 6ebd
00000390: 2fd9 bf3d 04c3 6ebb 3832 1f3a 8c53 69bc
000003a0: 6d8d dc3b 7341 95bd 4b85 553d 25d2 debc
000003b0: d551 10bd 0486 adbb b239 b83c 7774 2e3c
000003c0: f65b 0cbe ab4d 21be 4058 5fbc e695 5a3c
000003d0: 22e1 0d3d f1b2 623e e1f8 34bd 74fe ce3d
000003e0: 9727 e53d 4e04 46bb ee26 4b3e 91e4 3d3e
000003f0: 78bf 053e b912 ae3d 9da9 69bd eb2d c6bc
-0.14647806 0.032932423 0.07940882 -0.056728818 -0.050634596 -0.06022385 -0.1692631 -0.068502285
-0.22278586 0.011101368 0.16947505 0.15238145 0.1385964 0.083383694 0.13156477 -0.1918643
0.10454309 0.09507325 -0.11157269 -0.18103872 -0.0032869922 0.00043772068 0.1321645 0.079375826
0.09715849 0.04322453 -0.1869323 -0.19813412 0.12622839 0.01893285 -0.09293073 0.04626174
0.10355098 0.13063632 0.08823743 -0.14593172 -0.22426891 0.10125622 0.09398501 -0.19822444
0.11004619 -0.21915895 -0.14961194 0.08904512 0.11895043 -0.1642568 -0.10614741 0.12976663
0.10612355 0.17382202 -0.017444251 -0.027055446 -0.00077059586 0.048843406 -0.035895277 0.12853634
0.055618197 0.17831817 -0.13193594 -0.04233992 -0.15103103 -0.061697017 -0.07006802 0.00022077933
-0.13768269 0.042937532 0.021947922 -0.033284552 0.008162945 -0.0025773281 0.027509365 0.085127264
-0.018841203 0.00066825224 0.15062776 0.041746255 -0.005120291 0.04003772 -0.028576825 -0.05731573
0.028329208 -0.023275066 -0.115732715 -0.068549365 -0.07060771 0.030953798 0.06450483 0.105157554
-0.021715153 -0.13245155 0.00966154 -0.00821827 -0.1470083 0.0057493905 0.008677339 0.016001366
0.09552985 -0.0791157 -0.1446158 0.012821339 0.07150725 0.115932025 0.005979939 -0.11080095
-0.08527227 -0.0901987 -0.0554194 0.01142285 -0.16512045 0.097020894 0.14507419 -0.17610726
0.024047837 0.038595334 -0.11271282 0.07192731 -0.1373567 0.059860382 0.116329975 0.03700589
0.115986235 0.108939014 0.081222735 0.012411173 0.14657512 0.10222175 -0.18117234 -0.15780489
-0.14193256 0.10134353 0.12609425 0.07394825 0.06759776 -0.087093845 -0.06823398 0.10632687
0.10614798 -0.026017992 0.13696486 -0.16419436 0.05594412 0.10372692 -0.16738519 0.030276729
-0.1502578 -0.09184831 0.08202445 -0.030908324 -0.084281355 -0.091831826 -0.09984228 0.05941066
-0.18160823 -0.12620008 -0.008023775 -0.2392273 0.018253868 -0.044256184 0.048591055 -0.043680947
0.05254534 0.006283224 -0.058816977 -0.11927707 0.04325555 0.039280348 0.09223801 0.005229954
-0.07398302 0.05825166 0.05591912 0.075706735 -0.051834937 0.0953344 -0.11103777 0.086047396
-0.12333021 0.05911844 0.091667995 -0.10839945 -0.12466299 0.08357175 0.046134986 0.09020621
0.042415656 0.052023355 0.095762275 -0.14870834 0.09750639 -0.08809294 0.0818533 0.029400885
-0.13047451 -0.14231405 0.09407563 0.045504928 -0.03417326 -0.0041483003 0.16635798 -0.04469014
-0.06593117 0.20143159 0.112909585 0.062566556 0.12491723 -0.032611765 -0.1560089 -0.057141587
0.047317304 0.07303768 0.0071366285 0.012834046 -0.0022069304 -0.0009799767 -0.0038235476 -0.015378777
0.029624742 0.009238746 -0.06642435 0.013848314 -0.0049189776 0.077232786 0.007967113 0.027685743
-0.15375832 -0.13838519 -0.122142434 -0.058289085 0.09367596 -0.0036432156 0.0006072852 -0.0142411105
0.0067307265 -0.07287874 0.05212907 -0.027199814 -0.03523429 -0.005295517 0.022488449 0.010647885
-0.13706955 -0.15752284 -0.01363188 0.013341403 0.03463853 0.22138573 -0.044182662 0.10107127
0.11189192 -0.0030214968 0.19839069 0.18544222 0.13061321 0.08499665 -0.05704652 -0.024191817

fc1.bias f4 [64]
00000000: aec7 b03c e8ac 1c3e 31a4 92bc 29fa 8b3d
00000010: 8ddd 253e a93e f03d d839 583d abb7 b73d
00000020: cb92 56bd 61fd 91bd 15ce 813c f335 e0bd
00000030: 3d91 bc3d b112 973b be28 1abd 7993 733d
00000040: b11b 01be 03b0 9bbd 59d7 b0bc d3b0 f03d
00000050: 3ace 0fbe 4f87 a43d e80d 24be 300f b9bd
00000060: b771 813d 3161 7fbb e872 a0bd 0e77 16bb
00000070: 1ada 813d 71d4 f2bd 04cc b33d 507f d7bd
00000080: 9233 58bc 49ae 48bd 1c65 abbd d8f1 23bc
00000090: 9418 e9bb 1783 023d a57e 2f3d 4d9e 573c
000000a0: c12c 7fbd fde5 ec3d cb35 13bd 9073 523a
000000b0: 5902 a9bc 873c ea3d 548a 1abc ad9a b13d
000000c0: a3bd 0a3e 8893 48bd 01a2 5c3e 5911 ddbd
000000d0: 1e5d f43b 13a4 493d 610c edbd da46 bcbd
000000e0: b29f f73c aac0 d43d 4ad8 903d b8a8 c33d
000000f0: 2057 b739 9480 b4bd 2166 c13c f99c 05bd
0.02157959 0.15300333 -0.017900558 0.06834824 0.16197796 0.117307015 0.05278954 0.08970579
-0.052386086 -0.07128406 0.015845338 -0.1094779 0.092073895 0.0046103825 -0.03763651 0.059466813
-0.1260822 -0.07601931 -0.02158706 0.117524765 -0.14043513 0.080336206 -0.1602093 -0.090361
0.063205175 -0.0038967843 -0.07834417 -0.0022959146 0.06340428 -0.11856926 0.08779147 -0.1052233
-0.013195889 -0.048994336 -0.083688945 -0.0100063905 -0.0071135256 0.0318633 0.042845387 0.0131603
-0.06229854 0.11567304 -0.035939973 0.00080280844 -0.020631002 0.11437326 -0.009432394 0.0867208
0.13548903 -0.04896882 0.21546175 -0.107943244 0.0074573895 0.04922874 -0.11574627 -0.09193201
0.030227516 0.1038831 0.07072504 0.09553665 0.00034969393 -0.08813587 0.02360827 -0.032620404

fc2.weight f4 [4, 64]
00000000: 53d4 bf3d 323d 36bd 343e 89bc 2984 db3d
00000010: 6286 a63d b080 553d 8d81 933d 70fa 9439
00000020: f460 47bd 0721 1b3d a7b2 18bd 78db 3dbd
00000030: 39f4 613d 6bce c33c efa6 98bd 102c b63c
00000040: 18f8 efba 5af9 ee3d d489 5f3c 28ef 873d
00000050: 935a c43c ac89 773b af07 a9bd 1898 7c3d
00000060: b20c 153c 85ff c7bd 68d4 893d cee5 543d
00000070: a3ae 29bc f8ce d0bd f219 0e3e 9b01 30bd
00000080: 2c81 0fbd 445e abbd 146e 40bd 8075 0f3d
00000090: 9633 40bd 235b e13d 98b1 8d3c 006f 1c39
000000a0: a653 da3d 1eff 6c3d aa5d 6e3d 789a a3bd
000000b0: d29d 3cbd df0d 86bd ab96 af3d ef8a 043d
000000c0: 6863 2b3a e06e b03c ff02 eb3c 2a4e b1bb
000000d0: 2591 b2bd 5b33 0b3d 4ed7 013e cedf 8cbd
000000e0: 8efe d13c d59f 8abd 07e7 6a3d cfd7 ed3d
000000f0: c3be aa3c 4e40 583d 3085 993b baa4 85bd
00000100: 6550 543d fa10 483c 00f7 2b3e a888 f43b
00000110: e5b7 733c 2c82 28be b520 3a3d 9c87 2d3e
00000120: b98f 383e d8c0 553d d8d7 4c3d d7e4 63bd
00000130: 36af 193e 8db7 773d 6211 c5bd 789f 06bd
00000140: cca9 64bd 6ead 4fbe ca84 193e 032d d73d
00000150: 1410 acbd 88b3 163e 46e1 a2bd 90ee 863d
00000160: 3ba8 01be b362 35be c687 ab3d 161a 8ebd
00000170: 75db 04bd 1cd4 58bd c71e 68bd c8ce 91bb
00000180: 8a1a d9bd 784e dc3c 8753 03be 2825 8b3d
00000190: cc47 e73d df30 33be 1867 943d 457f 423d
000001a0: c908 97bd 0b84 1e3d c6a5 d03d d2fd 933d
000001b0: e4bb 16be 7cb2 0cbd ac5e 373c 7858 9b3a
000001c0: b0f8 513b 26a4 8abd 5a01 873d 5692 5dbd
000001d0: 03c4 0e3e 7cf1 bdbb 5ead 05be 9334 a0bd
000001e0: 01d0 59be 45e9 ce3d b42d 903d ce5e 25be
000001f0: 6455 f7bc e058 0fbe a4f2 15bd 1160 30bd
00000200: a6cc 143d 9471 a93d 0bbf b03b b2af 003d
00000210: 077b 263e e4b1 a9bc e91b 87bd dfb4 99bd
00000220: 247c 8cbd 4c0a 91bd bf90 80bd f707 a8bd
00000230: e16f f5bd bcf3 9a3d 7d57 eb3d 2178 92bd
00000240: 1cda 0bbc 1bf7 5f3e 573a ed3d b9f1 083e
00000250: dc5b 55bc d903 38be 389d dcbc bc1b 82bd
00000260: a498 883d e4a1 093e 773c a3bd baab 0a3e
00000270: 6443 db3c e61e 123e 8e48 1e3e cb68 3c3d
00000280: 9ae8 de3d 2c8d 543b 3c59 2d3e ec38 3cbc
00000290: 609f e83d 378a 5a3e fc11 2e3e a2d6 b9bc
000002a0: 3fd7 713d 40eb be3a 278b 453d a3aa c53c
000002b0: 8e9e 463e 1728 c73c d311 d7bc 9775 f4bd
000002c0: babf ffbc 78b5 7a3d 1010 03bd 41f2 aebd
000002d0: d811 e6bd f1a7 483d bf0e d43d 9056 2f3b
000002e0: b59e 373e b389 d0bc 83fa 113d c315 053e
000002f0: efc0 a9bd 868e 463e 3afc e73d 6862 96bc
00000300: 5402 4c3e 0934 23be e223 543d 0980 4d3e
00000310: 997c 38be 0f0a c2bd 918b 703d 8685 bc3d
00000320: 3829 cb3d 76e9 023d eaa0 ee3d 847e 7abd
00000330: 121a c83d 9927 533d 652a 90bd 0c1e f3bd
00000340: 5702 dfbd 5037 8eba 6b48 4f3d 329f cfbd
00000350: c599 073d d161 303e 203b 093d 7a4a c23d
00000360: ea60 d5bd 98e1 2cbe 0eaa 3fbb af2f 37be
00000370: 94a0 a23d 59fc 21be 8b21 44bd 3f3a dfbd
00000380: 7099 d8bd 53b7 0cbe 6006 8abd 1c0f bd3d
00000390: 9fe8 f4bc f08a d2bc 240d 00be a1dd 46be
000003a0: 24b7 37be ea2a 003e 0c48 533d e108 053e
000003b0: 9493 1cbe 0563 cbbd 214f 20be 3fe9 94bd
000003c0: 652f 25be 6e70 c93d 7f3d 1b3e b5b1 203e
000003d0: 9878 943d ec9d db3d 6eb6 883d cbf6 20be
000003e0: a81d d0bd dbee 1a3e 498f ecbc f297 ddbc
000003f0: 17e5 ee3d 5d68 18be 0e0c 37be 5c69 c13d
0.093666695 -0.044491954 -0.016753294 0.10718567 0.081311 0.05212468 0.07202444 0.0002841535
-0.048676446 0.037873294 -0.03727975 -0.04635188 0.05516455 0.023902139 -0.07453715 0.022237808
-0.0018308191 0.11668654 0.013643701 0.06637412 0.02396897 0.0037771268 -0.08253419 0.061668485
0.009097265 -0.09765533 0.067299664 0.05197697 -0.010356578 -0.10195726 0.13877085 -0.04297028
-0.035035297 -0.08367589 -0.04697998 0.035024166 -0.046924196 0.11003711 0.017296597 0.0001491867
0.10660486 0.057860486 0.058194794 -0.07988447 -0.046048947 -0.065456145 0.085736595 0.03235906
0.0006537945 0.021537244 0.028687952 -0.005410929 -0.0871909 0.033984523 0.12679788 -0.06878625
0.025634076 -0.06768767 0.05734923 0.11613428 0.020842915 0.0527957 0.0046850666 -0.0652556
0.051834483 0.012211079 0.16793442 0.0074625798 0.014875387 -0.16455907 0.045441348 0.16946262
0.18023576 0.052185863 0.050010532 -0.05563816 0.15008244 0.060477782 -0.09622456 -0.032866925
-0.055825993 -0.20281002 0.14992061 0.10506632 -0.08401504 0.14716923 -0.07953124 0.06588471
-0.12661831 -0.17713432 0.08375506 -0.06938569 -0.032435853 -0.05293666 -0.056669977 -0.004449699
-0.10600765 0.026892886 -0.12824832 0.06794196 0.11292991 -0.17499112 0.07246226 0.047484655
-0.073747225 0.038700145 0.10187869 0.07226147 -0.14720112 -0.034349903 0.011192005 0.0011851927
0.0032039098 -0.0676959 0.06592055 -0.054094635 0.1394196 -0.0057966094 -0.13054416 -0.07822528
-0.21270753 0.101030864 0.07039967 -0.16149446 -0.030192085 -0.13998747 -0.036608353 -0.043060366
0.03632798 0.082736164 0.005393868 0.031417556 0.16257869 -0.020714708 -0.0659712 -0.075052015
-0.068596154 -0.07082042 -0.06277608 -0.08204644 -0.1198423 0.0756602 0.114912964 -0.07151819
-0.008535888 0.21871607 0.11583393 0.1337346 -0.013022389 -0.17970218 -0.026930436 -0.06352946
0.06669739 0.13440663 -0.07970517 0.13542071 0.026765533 0.142696 0.15457365 0.045998376
0.10884209 0.0032432778 0.16928571 -0.011488181 0.11358523 0.21341787 0.16999048 -0.022685353
0.059043165 0.001456596 0.04822841 0.024129217 0.19396421 0.024311109 -0.026253616 -0.11936491
-0.031219352 0.06120822 -0.03199774 -0.085423 -0.11233872 0.048988286 0.10354375 0.0026754476
0.17931636 -0.025456285 0.035639297 0.12996583 -0.08288752 0.19390306 0.11327405 -0.01835747
0.19922763 -0.15937819 0.051792033 0.20068373 -0.1801628 -0.09474575 0.05872685 0.09205155
0.09919971 0.031960927 0.11651786 -0.06115581 0.097705975 0.051551435 -0.07039336 -0.11870965
-0.10889118 -0.0010850225 0.050606173 -0.10137786 0.03310563 0.17224814 0.03350365 0.094868615
-0.104188755 -0.16882932 -0.0029245648 -0.17889284 0.07940784 -0.15818919 -0.04788355 -0.108997814
-0.10576141 -0.13741808 -0.06739497 0.092313975 -0.029896079 -0.025701016 -0.12505013 -0.19420482
-0.17940956 0.1251637 0.05158238 0.12991668 -0.15290672 -0.09930996 -0.15655185 -0.07271051
-0.16131361 0.098358974 0.15160178 0.1569279 0.07249564 0.107234806 0.06675421 -0.15719144
-0.101619065 0.15130179 -0.028876917 -0.027049992 0.11664789 -0.14883561 -0.17875692 0.09443924

fc2.bias f4 [4]
00000000: 19f6 f0bd ec09 563d 757d 0d3e d518 be3d
-0.117656894 0.052255556 0.1381739 0.0928208

q_layer.q_layer.weights f4 [3, 4]
00000000: 62a8 ea3f ecd4 b53f 1ad4 4740 2a3a 8540
00000010: 3628 8240 71ce a040 4290 303f 5d1c 8a40
00000020: 1bac 9b40 3dda 8e3f fc70 e43f 67f4 a240
1.8332636 1.4205604 3.1223207 4.16335 4.0674086 5.0252004 0.6897012 4.3159623
4.864759 1.1160351 1.784698 5.0923343

fc3.weight f4 [32, 4]
00000000: f691 093f 4caa 953e 9742 d33e 69dc 60bc
00000010: bed1 b6be 49bb 18be e512 f5be 2340 acbe
00000020: 361b 67be 4447 b0bd 0146 653d be17 2d3e
00000030: 8a28 f6bc 7a86 d73d e75e 8abd ebbf 0a3f
00000040: 0b87 0bbe 9343 bf3c 872e 91be c742 57be
00000050: 1b76 9bbd 56c8 253e 3905 0abf 3542 04be
00000060: 7c29 4b3e 660b 733d f796 04be 387a fc3e
00000070: f79b 94be 4028 fc3e b292 22be 6209 3abe
00000080: 9cc4 603e 6097 15bd d8f4 363e c031 5e3d
00000090: ccfd dc3e 1083 3f3d 24b0 0a3e 8094 e8bd
000000a0: 5893 823e 4cdd 4cbe 0aeb a93e 8a95 acbe
000000b0: 96e2 cdbd 5b3b 103f 3866 dc3d beba 16bf
000000c0: 217a 7d3e f66b 9b3e b0e9 af3e f340 d0be
000000d0: 7a97 c73e 9e79 263e 351b e2bd 06e6 67be
000000e0: 1bc4 37be 01a3 e5bd d45f 40bd cc95 2f3e
000000f0: 68d9 463e 681e 48be c03a 9c3c 00f3 52bd
00000100: 3785 7c3e 9cba 8f3e 4e5f e1be 9a37 a6be
00000110: ae06 f4bd 98ee eb3e d89d 04bf 3628 6f3e
00000120: 6859 2a3e 97ad d6be 3299 e3be ec0a c03e
00000130: 5832 a03e a0dc 21bd d004 f33d 0006 253e
00000140: 7ff4 12be ad5f f83e 5ac7 903c 83e7 94be
00000150: 8a30 a23e adf4 afbe 520e 93bd ce93 5ebd
00000160: 3254 e4be 935d aebe 8098 fe3c a705 a5be
00000170: ded9 193e e6b9 573e 8986 e4be 9b23 d23d
00000180: c8ca a63d 26c9 a43e 5e34 943d bd4e b4bd
00000190: bc93 e53e 8b3e 873e ebcb 833e 3a4b 253e
000001a0: 641a 9ebe 109c d43e f1ee c43e bdc6 51be
000001b0: f8ad d23e 001c de39 9afe aebe 7838 0c3f
000001c0: d492 84be c033 e33d 2481 653e 64fa 4bbe
000001d0: 5cd8 d93e 8d0e a03e 62b9 d43e 6dbc 49bd
000001e0: c51a 473e 71a7 8bbe 4ac2 14be b803 5bbe
000001f0: 8021 9c3e 944a b33e b2d7 dd3e 42ec f9be
0.53738344 0.2923149 0.41261742 -0.013724425 -0.35706896 -0.14915194 -0.47865978 -0.33642682
-0.22568974 -0.08607343 0.055974964 0.16903588 -0.030048627 0.10523696 -0.067563824 0.54199094
-0.13625734 0.023347652 -0.2835581 -0.21021567 -0.07590886 0.16189703 -0.5391422 -0.12915881
0.19840044 0.059337042 -0.12948214 0.49311996 -0.29025242 0.49249458 -0.15876272 -0.18167642
0.2195 -0.036521316 0.17866838 0.054246664 0.43162382 0.04675585 0.13543755 -0.11356449
0.2550304 -0.20006293 0.33187133 -0.3370784 -0.100529835 0.5634057 0.10761684 -0.58878696
0.2475362 0.30355805 0.34357977 -0.40674552 0.38982755 0.16257331 -0.110403456 -0.2264634
-0.17945902 -0.11212731 -0.04696639 0.17146987 0.19418871 -0.19542849 0.019070983 -0.051501274
0.24660192 0.2807206 -0.44018024 -0.32464296 -0.119153365 0.4608047 -0.5180335 0.23355183
0.16635668 -0.41929314 -0.44452816 0.37508333 0.3128841 -0.039517045 0.11866152 0.1611557
-0.1435108 0.48510495 0.017673183 -0.2908288 0.31677657 -0.3436636 -0.07180466 -0.054340176
-0.44595486 -0.34055766 0.031078577 -0.32230875 0.15024516 0.21067008 -0.44633892 0.102606975
0.08144146 0.32184714 0.07236551 -0.08804081 0.44839275 0.26414904 0.25741515 0.16141978
-0.3087951 0.41525316 0.38463548 -0.20485969 0.41148353 0.00042364 -0.3417862 0.54773664
-0.2589327 0.11093855 0.22412544 -0.19919735 0.42547882 0.312611 0.41547686 -0.049251962
0.19443806 -0.27276185 -0.1452724 -0.21388137 0.30494308 0.35017836 0.43328625 -0.48813063

fc3.bias f4 [32]
00000000: c5b3 97bd 1a70 443e 4301 03be cedf 5e3d
00000010: fd91 c43c 0af4 a23e 4322 763e 328c b93d
00000020: fca1 f9be f072 febd aa01 d8be 2581 9b3e
00000030: 740c d73d 8cf5 873e 2d7e db3e c061 1abe
00000040: 69e8 a13e bba4 863e 2d21 eebd dc00 69be
00000050: 3ebd 46be 4839 ab3e de8a eabd 8ddf ee3e
00000060: a74a 4b3e d485 f5bd 2828 1dbc b29d 273e
00000070: f075 a7be 7f50 75be 605b af3e c4b4 313d
-0.07407335 0.19183388 -0.1279345 0.054412656 0.023995394 0.31826812 0.24036507 0.09059943
-0.48756397 -0.12424266 -0.4218877 0.30371967 0.10500422 0.26554525 0.42869702 -0.15076351
0.31622627 0.26297554 -0.116274215 -0.22754234 -0.19408128 0.3344214 -0.11452268 0.4665493
0.19852696 -0.11988416 -0.0095920935 0.1636875 -0.32707167 -0.23956488 0.342494 0.043385282

fc4.weight f4 [1, 32]
00000000: adb0 683e 09bf aa3d 32cd aabc 2024 27be
00000010: fedf 6e3d 5cd2 e13d 4840 49be 3169 643e
00000020: ad6b 053e afe6 a0bd 3230 9a3d 933b d63d
00000030: 7abc 333e fb12 d03c 1957 47be bccf 01bd
00000040: 46f2 5a3d 7e17 9e3d ac02 f83a 755d c8bd
00000050: 1877 103d 04d3 56be d93b d6bc 6f11 f53d
00000060: 5c59 03be d255 3e3e af5f a03d b6ea 2dbe
00000070: 0fe8 25be 6cde 88bd 58d7 d93d 0b51 033e
0.22723646 0.08337218 -0.020849798 -0.16322374 0.058319084 0.11026451 -0.19653428 0.22305752
0.13029356 -0.078564994 0.07528724 0.10460582 0.17552367 0.025399676 -0.19466819 -0.03169225
0.053453706 0.077193245 0.0018921695 -0.097834505 0.035269827 -0.20978934 -0.026151584 0.11966216
-0.12827057 0.18587425 0.0783075 -0.16984066 -0.16201805 -0.066830486 0.10636777 0.12823884
